Neuroinformatics_Laba4/CNN.pth (torch, 241280 bytes, 10 tensors)

conv1.weight f4 [6, 3, 5, 5]
0	0xbe9cf4a7	-0.30655405
1	0xbf179fc3	-0.5922815
2	0xbe3159e9	-0.17319454
3	0xbe8ffcaf	-0.2812247
4	0xbe45b44e	-0.19307062
5	0xbe8b223d	-0.2717456
6	0xbfbf94d7	-1.4967297
7	0xbfb3b2d5	-1.403895
8	0xbedafb41	-0.42769817
9	0x3dc093e1	0.09403206
10	0x3dbd7bb5	0.09252111
11	0x3ec3721f	0.38173005
12	0x3cf6079c	0.030032925
13	0xbd3844cf	-0.044987496
14	0x3e3462ad	0.17615767
15	0x3e93064c	0.28715742
16	0x3f7e634e	0.99370277
17	0x3f81595a	1.0105393
18	0x3e6163b7	0.22010694
19	0xbd79944c	-0.060932443
20	0x3ec91ffc	0.39282215
21	0x3e99d24f	0.30043265
22	0x3e9cc253	0.30617008
23	0x3f2778d7	0.6541876
24	0x3edfe3c0	0.43728447
25	0x3e02a82c	0.12759465
26	0x3d1af7f2	0.037834115
27	0x3f487bfb	0.7831418
28	0x3e923d11	0.28562215
29	0x3e039ffa	0.12853995
30	0x3e5f9806	0.21835336
31	0xbf674a27	-0.9034752
32	0xbf2f8225	-0.6855796
33	0xbd09557b	-0.033528786
34	0xbba120f3	-0.004917258
35	0x3e6aabfa	0.22917166
36	0x3ecec5f0	0.4038539
37	0xbd0d82c3	-0.034548532
38	0xbdabb5da	-0.08384295
39	0xbce063a8	-0.02739127
40	0x3e368b7a	0.17826644
41	0x3f022cc3	0.5084955
42	0x3ec5140a	0.3849185
43	0xbe7bcd29	-0.24589981
44	0xbf057cbd	-0.5214346
45	0x3ca84d70	0.020544738
46	0xbe6e8d43	-0.23296075
47	0xbe2e5abf	-0.17026804
48	0x3d65811f	0.056031343
49	0xbf1c9353	-0.611623
50	0x3e4d5df8	0.20055377
51	0x3b9efd3b	0.004851965
52	0x3ef9db82	0.48800284
53	0x3e6dfd50	0.23241162
54	0xbd386ab2	-0.045023628
55	0xbe64ee01	-0.22356416
56	0xbf721761	-0.94566923
57	0xbf4288b9	-0.7598987
58	0xbeb24561	-0.34818557
59	0x3e0b710a	0.1361734
60	0xbe85a56d	-0.26102772
61	0x3d930e4a	0.0718046
62	0xbebbb118	-0.3665855
63	0xbddf0670	-0.108899
64	0x3ddd7289	0.108128615
65	0x3d187ba3	0.037227284
66	0x3f0bb703	0.5457613
67	0x3f0c2bdc	0.54754424
68	0x3c75a7d8	0.01499363
69	0x3dc6af3b	0.09701391
70	0x3e72fef9	0.23730077
71	0xbe85106b	-0.25989088
72	0x3c0b25bb	0.008492882
73	0x3ea7e6a5	0.32793155
74	0x3c969d59	0.018385576
75	0x3eccac0d	0.39975014
76	0x3f4b0207	0.7929997
77	0x3ead8936	0.33893746
78	0x3e661def	0.22472356
79	0x3e73fcbc	0.2382688
80	0x3e29ff77	0.16601358
81	0x3d91dfa6	0.07122736
82	0xbe7b3953	-0.24533586
83	0x3e9006d9	0.28130224
84	0x3f1bf0a1	0.60914046
85	0x3ed17d5d	0.40915957
86	0xbed47b5a	-0.4150036
87	0xbee8f27b	-0.45497498
88	0x3f12d9b2	0.57363427
89	0x3eef8eea	0.46788722
90	0xbe1e8321	-0.15479709
91	0xbefe5727	-0.49675867
92	0xbe5245d6	-0.20534453
93	0x3f085444	0.5325358
94	0x3efe2799	0.49639586
95	0xbebbd537	-0.36686108
96	0xbe898f08	-0.26866937
97	0xbe616975	-0.22012885
98	0x3db378bb	0.08763262
99	0xbd016754	-0.031592682
100	0xbf1110d2	-0.5666629
101	0xbeb64dd9	-0.35606268
102	0xbf28a07e	-0.6586989
103	0xbf2c4be1	-0.6730328
104	0xbe7f3b02	-0.24924853
105	0xbeb5fdaa	-0.35545093
106	0xbf37b68a	-0.7176291
107	0xbf3b6a51	-0.732091
108	0xbe113756	-0.14181265
109	0x3e992158	0.29908252
110	0x3cec5a58	0.028851673
111	0xbf7f7444	-0.9978678
112	0xbf57f906	-0.84364355
113	0x3e6fa8ad	0.23404188
114	0x3ece236a	0.40261394
115	0xbe23470f	-0.15945075
116	0xbf492d59	-0.7858482
117	0xbf02c415	-0.5108045
118	0x3ea22580	0.31669235
119	0x3e9c3a5a	0.3051327
120	0x3dccebe3	0.10005929
121	0xbe87c9b3	-0.26521072
122	0xbed94766	-0.42437285
123	0x3d98f7c1	0.0746913
124	0x3e99a97d	0.30012122
125	0x3e56d669	0.20980228
126	0x3d002ff0	0.031295717
127	0xbdf86aeb	-0.12129768
128	0xbe168f01	-0.14702989
129	0xbd279520	-0.0409137
130	0x3ebd408c	0.36963308
131	0xbe9b1edd	-0.30296984
132	0xbe8346e7	-0.25640032
133	0x3df146d4	0.117810875
134	0x3e91d6c8	0.28484178
135	0x3e276187	0.16345797
136	0xbf3cb474	-0.7371285
137	0xbf0e3017	-0.5554213
138	0x3f20a876	0.6275705
139	0x3eb4a2de	0.35280508
140	0xba315929	-0.00067653
141	0xbf0384aa	-0.51374304
142	0xbbbaf571	-0.0057055284
143	0x3f1a378d	0.60241014
144	0x3e4f059e	0.20216987
145	0x3f0b2b87	0.5436329
146	0x3d89bc45	0.06725363
147	0x3d5ee86e	0.05442088
148	0x3f16cbe8	0.58904886
149	0x3e9cd2a7	0.30629465
150	0x3e81568f	0.2526135
151	0x3e4210b7	0.18951689
152	0xbe2560b3	-0.16150169
153	0x3e6ff744	0.23434168
154	0x3eaa60eb	0.33277068
155	0x3f049690	0.5179224
156	0x3f8da19d	1.1064945
157	0x3fc581b6	1.543021
158	0x3f976b5b	1.1829637
159	0xbdaa1412	-0.08304609
160	0xbd7891ba	-0.06068585
161	0x3f029c47	0.5101971
162	0x3f6fc555	0.9366048
163	0x3f51a165	0.81886894
164	0xbdac4306	-0.08411221
165	0xbf32b277	-0.69803566
166	0xbf9675de	-1.175472
167	0xbfae2c70	-1.3607311
168	0xbf2e61aa	-0.68117774
169	0x3e4d7f0b	0.20067994
170	0xbef17c8a	-0.47165328
171	0xbf26a138	-0.6508975
172	0xbf3e1679	-0.7425304
173	0xbf563f69	-0.83690506
174	0xbebdcb02	-0.37068945
175	0xbeee4650	-0.4653802
176	0xbee47fa7	-0.4462864
177	0xbf2b2b4a	-0.6686293
178	0xbe8188c7	-0.25299665
179	0x3e6862e8	0.2269398
180	0x3cbc282e	0.022968378
181	0x3f36e138	0.71437407
182	0x3f9be57b	1.2179407
183	0x3f1ac9f7	0.60464424
184	0xbe6603c0	-0.22462368
185	0xbf1cf833	-0.6131622
186	0x3e42a7e8	0.19009364
187	0x3f0125a7	0.5044808
188	0xbd2dfaa5	-0.04247536
189	0xbec198f9	-0.3781202
190	0xbf41d0a3	-0.7570898
191	0xbf8fb8c9	-1.1228267
192	0xbfb89696	-1.4420955
193	0xbf7d272e	-0.9888791
194	0x3e861f05	0.2619554
195	0x3e1eea2a	0.15519014
196	0x3ea713aa	0.3263219
197	0x3d9cbd7b	0.07653328
198	0xbdaadb46	-0.08342604
199	0x3f2637e4	0.6492903
200	0xbe10c068	-0.14135897
201	0xbf2480c9	-0.6425901
202	0xbf91683d	-1.1359936
203	0xbf723502	-0.94612134
204	0x3dcbb7d6	0.09947173
205	0x3efda4a0	0.4953966
206	0x3f14b552	0.5808917
207	0x3f16a7a2	0.5884954
208	0x3e559f84	0.20861632
209	0xbeb56785	-0.35430542
210	0x3e265133	0.16241913
211	0x3f275fb8	0.6538043
212	0x3ed26216	0.4109046
213	0x3e1de335	0.15418704
214	0xbe2ca75c	-0.16860718
215	0xbe6cef8f	-0.2313826
216	0xbf04330b	-0.51640385
217	0xbf3629ba	-0.7115742
218	0xbf2b57da	-0.66930926
219	0x3e45f282	0.1933079
220	0x3f11e71b	0.56993264
221	0x3f374842	0.7159463
222	0x3f2634a0	0.6492405
223	0x3ef9526f	0.48695704
224	0x3f080e40	0.53146744
225	0x3e2d1164	0.16901165
226	0xbf106951	-0.564107
227	0x3da97e2a	0.08276017
228	0xbd99fc8e	-0.07518874
229	0x3e0bc6c5	0.13650043
230	0x3daccd0e	0.084375486
231	0xbf8aa30d	-1.0831009
232	0x3f84559b	1.0338625
233	0x3f1894cf	0.59602064
234	0xbf7606d9	-0.961042
235	0x3d1baf6a	0.038009085
236	0xbf9e4cf5	-1.2367235
237	0x3fefc545	1.8732077
238	0x3f850c73	1.0394424
239	0xbfe81c00	-1.8133545
240	0x3d366d3d	0.04453777
241	0x3d064ba9	0.032787
242	0x3f682a64	0.9068968
243	0xbf0b8d00	-0.54512024
244	0xbdd0fc93	-0.10204425
245	0x3d056408	0.0325661
246	0xbd1f21f0	-0.038850725
247	0xbef02072	-0.46899754
248	0xbe9f2c7c	-0.31088626
249	0x3eae9be1	0.341033
250	0x3f060bca	0.5236174
251	0xbe182515	-0.14857896
252	0x3f3a9f20	0.72899055
253	0xbd9c8155	-0.076418556
254	0x3d805418	0.062660396
255	0x3ee59639	0.44841173

conv1.bias f4 [6]
0	0xbf500b38	-0.8126712
1	0xbf116855	-0.56799823
2	0xbfb6c2fe	-1.4278257
3	0xbf14833c	-0.5801275
4	0x3ef5668a	0.47929794
5	0xbe3424a2	-0.175921

conv2.weight f4 [16, 6, 5, 5]
0	0xbf0c8ce9	-0.5490251
1	0xbe3f2c71	-0.18669297
2	0x3f08335f	0.53203386
3	0x3e1abf07	0.15111934
4	0xbf1cbecc	-0.6122863
5	0xbf0af941	-0.5428658
6	0xbdc2dddb	-0.09514972
7	0x3d595506	0.0530596
8	0x3e23435d	0.15943666
9	0x3d9843b3	0.074347876
10	0xbee7dc46	-0.45285243
11	0x3ed6ed7e	0.41978067
12	0xbe71e7bf	-0.2362356
13	0xbefa907a	-0.48938352
14	0x3e97900f	0.29602095
15	0xbf148fcf	-0.58031934
16	0xbe5bd5c8	-0.2146827
17	0x3ede5d0f	0.43430373
18	0x3e1687b8	0.1470021
19	0xbc179404	-0.009251598
20	0x3dc89080	0.09793186
21	0xbf462665	-0.77402335
22	0xbe781194	-0.24225456
23	0x3ede0556	0.43363446
24	0x3f0f8f21	0.5607777
25	0xbe452d56	-0.19255576
26	0xbe2eb20b	-0.17060106
27	0xbea19392	-0.315579
28	0xbc7f041e	-0.015564946
29	0xbe31d65f	-0.17366932
30	0xbf29b0a6	-0.6628517
31	0xbec5bc55	-0.38620248
32	0xbdf06794	-0.11738506
33	0xbdd65790	-0.1046592
34	0xbefe71eb	-0.49696288
35	0xbf35ca1a	-0.7101151
36	0xbefda966	-0.49543303
37	0xbebee39d	-0.3728303
38	0xbe57104b	-0.21002309
39	0xbecdb850	-0.40179682
40	0x3d04de1c	0.032438383
41	0xbf176efd	-0.5915373
42	0xbefcd118	-0.49378276
43	0xbe52a71a	-0.20571557
44	0xbe5879c4	-0.211402
45	0xbd11aadf	-0.035563346
46	0xbed87de4	-0.42283547
47	0xbe91a5ec	-0.284469
48	0xbf1fb1d4	-0.6238072
49	0xbeb41993	-0.35175762
50	0x3ef42cf1	0.47690538
51	0xbdaca685	-0.084301986
52	0x3e961014	0.29309142
53	0xbe45e2f3	-0.19324856
54	0x3daf743b	0.08567091
55	0xbef69695	-0.4816176
56	0xbedd12d1	-0.43178418
57	0xbe6a06cf	-0.2285416
58	0x3eaea962	0.34113604
59	0x3f0829fd	0.5318907
60	0x3d7badfe	0.06144523
61	0x3d5638ee	0.052300386
62	0x3d306ee5	0.043074507
63	0xbdfdc1e2	-0.12390496
64	0x3db447c5	0.088027515
65	0x3ed5d599	0.41764525
66	0x3dac3b8a	0.08409794
67	0xbcab4c74	-0.02091048
68	0xbead5b09	-0.33858517
69	0x3d982c14	0.07430282
70	0xbd214e29	-0.03938118
71	0x3e3e089b	0.1855797
72	0x3ef726d8	0.48271823
73	0x3d05085c	0.032478675
74	0x3e64e494	0.2235282
75	0xbe3457af	-0.17611574
76	0x3c8438f5	0.01614044
77	0x3e861c9d	0.26193705
78	0xbe48467b	-0.19558136
79	0xbe1f584b	-0.15561025
80	0x3cd11578	0.025522932
81	0xbdfd7925	-0.12376622
82	0x3e54fcd0	0.20799565
83	0xbde209d1	-0.110370286
84	0xbea2ef96	-0.31823415
85	0x3f0206d5	0.50791675
86	0xbe80626c	-0.2507509
87	0xbf0cbc1c	-0.5497453
88	0xbe3b5fc2	-0.18298247
89	0xbe0ca23a	-0.1373376
90	0x3e08f25a	0.133737
91	0x3f12c9bf	0.5733909
92	0xbc7697d5	-0.015050848
93	0xbee43d2b	-0.44577917
94	0xbecdb13f	-0.4017429
95	0xbe9c0c63	-0.304782
96	0xbe5fa582	-0.2184048
97	0x3e970136	0.2949311
98	0x3e680062	0.22656396
99	0xbe06733e	-0.13129899
100	0x3ede9787	0.4347498
101	0xbe6fe83d	-0.23428436
102	0xbd8d6650	-0.0690428
103	0xbd541ea3	-0.05178703
104	0xbe7f2cd5	-0.24919446
105	0x3ecd0a58	0.40046954
106	0xbe079174	-0.1323908
107	0xbe6fd01b	-0.2341923
108	0xbef51cfc	-0.47873676
109	0xbec73cb1	-0.3891349
110	0x3ecced08	0.4002459
111	0x3dd7d257	0.10538166
112	0xbebbc167	-0.36670992
113	0xbea4e5fc	-0.32206714
114	0xbea733d0	-0.32656717
115	0x3e989178	0.29798484
116	0xbd353b62	-0.044246085
117	0xbe3366a3	-0.17519622
118	0xbe00516d	-0.12531061
119	0xbe65654d	-0.22401924
120	0x3f201eac	0.625468
121	0x3ec1f5e9	0.37882927
122	0x3eb16ac7	0.34651777
123	0x3e0fcaba	0.14042178
124	0x3e3f24b3	0.18666343
125	0x3e82f4f8	0.2557752
126	0x3e8529d2	0.2600847
127	0xbd4de383	-0.0502658
128	0xbc85650b	-0.016283533
129	0x3e020d2b	0.12700336
130	0xbdabe6f2	-0.08393659
131	0x3e8005f8	0.25004554
132	0xbc1e06b1	-0.00964515
133	0xbe9ee5e1	-0.3103476
134	0xbedc88b5	-0.4307305
135	0x3d5f2ba2	0.05448497
136	0xbde811de	-0.11331533
137	0xbe867fd4	-0.262694
138	0xbe56a6ca	-0.20962062
139	0xbed3d4d2	-0.41373307
140	0x3f13b17b	0.5769269
141	0x3e75f2dc	0.24018425
142	0x3e0d5d4a	0.13805118
143	0xbe340c46	-0.17582807
144	0xbcf8e460	-0.030382335
145	0x3e7d6a74	0.2474764
146	0x3f335c27	0.7006249
147	0x3eb547f4	0.35406458
148	0x3c4f3324	0.01264647
149	0xbe9aaaa8	-0.30208325
150	0xbebb6c80	-0.36606216
151	0xbeb90306	-0.3613512
152	0xbe437617	-0.19088016
153	0xbe92fd93	-0.28709087
154	0x3eb3e1a7	0.35133097
155	0xbeea40e3	-0.4575263
156	0xbf0ad346	-0.5422863
157	0xbe75ef37	-0.24017034
158	0xbe984389	-0.29739025
159	0xbd9c7aa2	-0.07640578
160	0xbe9a0fc2	-0.30090147
161	0xbefffce3	-0.49997625
162	0xbec98e43	-0.3936635
163	0xbef55a10	-0.47920275
164	0xbe33d577	-0.17561899
165	0xbedbeaa4	-0.42952454
166	0xbf3b5016	-0.73169076
167	0xbf1f37e1	-0.6219464
168	0xbf045a80	-0.5170059
169	0xbe114301	-0.14185716
170	0xbd209694	-0.039206102
171	0xbd8b60e0	-0.06805587
172	0xbdd8fa9f	-0.10594677
173	0x3dc5e39d	0.096625544
174	0x3e44e8da	0.19229451
175	0xbe721046	-0.2363902
176	0xbed69ca1	-0.41916373
177	0xbd04f404	-0.032459274
178	0xbe2b8ce5	-0.16752966
179	0x3e9e9547	0.30973265
180	0x3db7977b	0.089644395
181	0xbeb30e79	-0.3497198
182	0xbeba8867	-0.36432192
183	0xbd369c66	-0.044582747
184	0x3ee29319	0.44252852
185	0x3e6ca036	0.2310799
186	0xbecefcf0	-0.4042735
187	0xbea510d2	-0.32239395
188	0x3dca76cb	0.09885939
189	0x3dedbf4a	0.11608751
190	0x3d6a7b6b	0.057246607
191	0xbe9951c4	-0.29945195
192	0xbc9321c9	-0.017960446
193	0x3e07c3c3	0.13258271
194	0x3e2d961c	0.16951793
195	0xbdaabb86	-0.083365485
196	0xbe249f8e	-0.1607649
197	0x3e6ca109	0.23108305
198	0x3f343482	0.7039262
199	0x3e3eaf40	0.1862154
200	0xbeae16aa	-0.34001666
201	0xbf1084d2	-0.5645267
202	0xbee308f5	-0.4434277
203	0xbf2fbf3c	-0.68651175
204	0xbe846a35	-0.2586228
205	0xbf4f637f	-0.81011194
206	0xbf3c1ff0	-0.7348623
207	0xbf0be5ae	-0.5464734
208	0xbf1d6457	-0.6148123
209	0xbeeee054	-0.46655524
210	0xbe82be9c	-0.25536048
211	0xbf103a82	-0.56339276
212	0xbf25eed8	-0.6481757
213	0xbf3668d3	-0.712537
214	0xbf35b089	-0.70972496
215	0x3d9931f2	0.074802294
216	0xbec48d34	-0.3838898
217	0xbe9df1ae	-0.3084845
218	0xbf0fcfb0	-0.5617628
219	0xbeaec532	-0.34134823
220	0x3e48e156	0.19617209
221	0x3e8f2b94	0.27962935
222	0xbe80f99f	-0.25190446
223	0xbf18482c	-0.59485126
224	0xbeefdef0	-0.46849775
225	0xbed91a50	-0.42402887
226	0xbd1731fd	-0.036912907
227	0xbe8e4345	-0.27785698
228	0x3e903f89	0.28173473
229	0x3d473a46	0.04863956
230	0xbe274dcc	-0.16338271
231	0xbe105cc1	-0.14097883
232	0xbe31263c	-0.17299742
233	0xbdd52ae9	-0.10408575
234	0x3e0a6678	0.13515651
235	0x3dccf829	0.1000827
236	0xbedaaedd	-0.42711535
237	0xbda75fb2	-0.08172549
238	0x3ec25ee4	0.3796302
239	0x3f073cff	0.5282745
240	0xbee8e389	-0.45486096
241	0xbddeda2d	-0.108814575
242	0x3e55fde7	0.20897637
243	0x3ec9fccd	0.39450684
244	0xbea9451c	-0.3306054
245	0xbe36a390	-0.17835832
246	0x3e892ef4	0.26793635
247	0x3e850d94	0.25986922
248	0x3e245015	0.16046174
249	0x3dfbae47	0.122891
250	0xbe407945	-0.1879626
251	0xbd9c1e44	-0.0762296
252	0xbcd48e80	-0.025946856
253	0xbce1a894	-0.027546205
254	0x3db48092	0.08813585
255	0xbe369f60	-0.17834234

conv2.bias f4 [16]
0	0x3fc2a993	1.5208
1	0x403ac870	2.9184837
2	0xbfc8ed1c	-1.569736
3	0x3f354833	0.7081329
4	0x40095bff	2.14624
5	0xbf8c95cd	-1.0983216
6	0x3d99aadd	0.07503293
7	0x3f9bc861	1.2170526
8	0x3ed2f747	0.41204283
9	0x3bec5961	0.0072128032
10	0xbf0c6104	-0.54835534
11	0xbe23ee28	-0.16008818
12	0xbfae855f	-1.3634452
13	0xbf5453f6	-0.82940614
14	0x3f5bfa1c	0.8592851
15	0xc02aeee4	-2.6708307

fc1.weight f4 [120, 400]
0	0xbd3a6c14	-0.045513228
1	0x3cc16476	0.023607474
2	0x3ddaa31a	0.106756404
3	0xbd000eed	-0.031264234
4	0xbd89d588	-0.06730181
5	0xbe585c38	-0.21128929
6	0x3da5a8c2	0.080888286
7	0x3eadc94c	0.3394264
8	0x3e3c8aa8	0.18412268
9	0xbdd063dd	-0.101752974
10	0xbe9877d8	-0.29778934
11	0xbe0d71e9	-0.13812985
12	0x3dfcbc11	0.12340558
13	0x3e7a7595	0.24458916
14	0x3e26a7a2	0.16274884
15	0xbe0b3e6b	-0.1359803
16	0x3d9a5ed6	0.0753762
17	0xbda2c760	-0.07948184
18	0xbd855a0b	-0.06511315
19	0xbdb19a28	-0.08671981
20	0x3d9e39f1	0.07725895
21	0xbdaccde3	-0.08437707
22	0xbe8005c9	-0.25004414
23	0x3e24a575	0.16078742
24	0x3e87f62c	0.26555002
25	0xbe17814f	-0.14795421
26	0xbe2db176	-0.16962227
27	0x3bb55890	0.005534239
28	0xbdd7957e	-0.1052656
29	0xbe332ebb	-0.17498295
30	0xbedb22c5	-0.42799965
31	0x3d746a8c	0.059671924
32	0x3d17e347	0.037081983
33	0xbdc985d3	-0.09839978
34	0xbe02f383	-0.12788205
35	0xbe5736fe	-0.21017072
36	0xbdbd5652	-0.0924498
37	0xbe800795	-0.25005785
38	0xbe1dc52f	-0.15407251
39	0xbcf6af74	-0.03011296
40	0xbe140797	-0.1445602
41	0xbe409253	-0.18805818
42	0xbd9e4104	-0.077272445
43	0xbdad0240	-0.08447695
44	0x3daf8984	0.08571151
45	0x3d6ac51e	0.05731689
46	0xbd872b02	-0.066
47	0x3dfd4419	0.12366504
48	0xbd921167	-0.071322255
49	0xbc7bd271	-0.015369997
50	0xbe86cd0f	-0.26328322
51	0xbeed0635	-0.46293798
52	0xbe18db57	-0.14927422
53	0xbdd15737	-0.10221713
54	0xbdb69780	-0.08915615
55	0xbe374f3f	-0.17901324
56	0xbed89c65	-0.4230682
57	0xbe85689f	-0.26056382
58	0x3dbe977e	0.093062386
59	0xbd66cd83	-0.056348335
60	0xbe118efc	-0.142147
61	0xbdfa946b	-0.1223534
62	0xbe4c0e19	-0.19927253
63	0xbde46c53	-0.11153474
64	0xbd5d84c9	-0.054081712
65	0x3e2fe366	0.1717659
66	0xbd57d71c	-0.05269538
67	0xbd845af7	-0.06462663
68	0xbd86bba1	-0.06578756
69	0xbe09fece	-0.13476107
70	0x3e15c4f0	0.14625907
71	0x3e40b6c1	0.18819715
72	0xbe679b61	-0.22617866
73	0xbde13ec3	-0.10998299
74	0xbe84ca97	-0.25935814
75	0xbe4550e3	-0.19269137
76	0xbe221aaa	-0.15830484
77	0xbdafe49c	-0.08588526
78	0xbaea3f27	-0.0017871604
79	0xbe72bafc	-0.23704141
80	0xbe0fd8ea	-0.1404759
81	0x3cffe55f	0.031237302
82	0xbd821059	-0.06350774
83	0xbe13a434	-0.14418107
84	0x3d544138	0.05182001
85	0xbe3136e5	-0.17306097
86	0xbe09ce4c	-0.13457602
87	0x3db5055c	0.08838913
88	0xbd18d2f5	-0.03731056
89	0x3c3bb3fe	0.011456488
90	0x3d1b8a3a	0.03797362
91	0x3e3e4a62	0.18583062
92	0xbe36a0ee	-0.17834827
93	0x3d36e368	0.044650465
94	0xbd93b1a4	-0.07211617
95	0xbd87434e	-0.06604634
96	0x3e20d025	0.15704401
97	0xbee54e4d	-0.447863
98	0xbe526154	-0.2054494
99	0x3cb7b7bc	0.022426479
100	0xbf0c147c	-0.54718757
101	0x3b7e72c3	0.0038825728
102	0xbe3afb6d	-0.18259974
103	0xbd32d828	-0.043663174
104	0xbdff536d	-0.12467084
105	0xbe3380d2	-0.1752961
106	0xbcc4e676	-0.024035674
107	0xbd10fa79	-0.03539512
108	0xbe6cf417	-0.23139988
109	0xbeb12118	-0.3459556
110	0xbd77150d	-0.06032281
111	0xbe818230	-0.25294638
112	0xbd5c3ae6	-0.053767107
113	0xbcb3303e	-0.02187359
114	0x3e28148e	0.16414091
115	0x3e00ff4e	0.12597391
116	0x3e3c73b8	0.18403518
117	0xbe630828	-0.2217108
118	0x3d6ad3d1	0.05733091
119	0x3dc83321	0.09775377
120	0x3e9229b0	0.2854743
121	0x3da5920b	0.08084496
122	0x3e1a1829	0.15048279
123	0xbdb461ae	-0.088076934
124	0xbd83b591	-0.064311154
125	0x3d5659ea	0.052331842
126	0x3d18c0d9	0.03729329
127	0xbe209d15	-0.15684922
128	0xbe6e6dc3	-0.23284058
129	0xbe9bfc05	-0.30465713
130	0xbde7525b	-0.11295005
131	0x3cbf1135	0.023323635
132	0xbd0f8745	-0.035041112
133	0xbdc87a6c	-0.09788975
134	0xbdd955ac	-0.10612044
135	0x3e42fc3e	0.19041535
136	0x3e2a34b5	0.16621669
137	0x3e52f270	0.20600295
138	0xbe48186e	-0.19540569
139	0xbebe8dcf	-0.37217566
140	0x3e394c9f	0.18095635
141	0x3ea5d760	0.3239088
142	0x3e20131f	0.15632294
143	0xbd540293	-0.051760267
144	0x3de6b3ec	0.11264786
145	0xbe246c98	-0.1605705
146	0x3d1293b4	0.035785392
147	0xbe53068d	-0.20607968
148	0xbc9e23e7	-0.019304229
149	0x3dab6b3b	0.08370062
150	0x3e9adbf2	0.3024593
151	0xbd084f32	-0.03327865
152	0x3ca71adb	0.020398548
153	0x3d9671ba	0.0734591
154	0xbe281198	-0.16412961
155	0x3e0046e6	0.12527046
156	0x3db77d30	0.089594245
157	0xbeb90e21	-0.36143592
158	0x3e5dd131	0.21661831
159	0xbdb08a06	-0.08620076
160	0x3cb2c48a	0.021822233
161	0x3dcae74b	0.09907397
162	0x3dea2023	0.11431911
163	0xbe4e72b2	-0.2016094
164	0x3db68c56	0.08913486
165	0xbe6b94aa	-0.2300593
166	0x3e743d44	0.23851496
167	0x3d9c605e	0.07635568
168	0xbe143678	-0.14473903
169	0x3d92b818	0.07164019
170	0xbc8d31f7	-0.01723574
171	0xbe14217f	-0.14465903
172	0xbe5b07a3	-0.21389632
173	0xbd2a549f	-0.041584607
174	0x3d85f5ae	0.06541
175	0x3e492fda	0.1964716
176	0xbdf497b7	-0.11943
177	0xbe1b234d	-0.15150185
178	0xbe117bde	-0.14207408
179	0xbcdc6977	-0.026905758
180	0x3d89b001	0.06723023
181	0xbdd79bf3	-0.10527792
182	0xbd84fffc	-0.06494138
183	0xbed22058	-0.410403
184	0x3d941995	0.07231442
185	0xbed81293	-0.4220167
186	0xbe54bb5d	-0.20774598
187	0xbdf4adfb	-0.11947247
188	0xbd14ab42	-0.036296137
189	0xbe5f6759	-0.21816768
190	0x3dbde2bf	0.09271764
191	0x3c9811bf	0.01856315
192	0x3e60d325	0.21955545
193	0x3db43539	0.08799214
194	0x3d980f7f	0.07424831
195	0x3e84cf7c	0.25939548
196	0x3e81d637	0.25358745
197	0x3ed81b2f	0.4220824
198	0x3ed5f4d1	0.41788343
199	0x3e58f4bf	0.21187113
200	0x3e26a6b0	0.16274524
201	0x3e460a07	0.19339763
202	0xbd3dd1ca	-0.04634265
203	0xbe16cd64	-0.14726788
204	0x3ea96bc6	0.33090037
205	0xbe128a6e	-0.14310619
206	0xbe8e8c43	-0.27841386
207	0xbd63ed80	-0.05564642
208	0xbd95be68	-0.07311708
209	0x3e71fde3	0.23632006
210	0x3e33c69f	0.17556237
211	0xbcf30f7b	-0.029670468
212	0x3ebae3d7	0.36501953
213	0x3e35426b	0.17701118
214	0x3cfea03b	0.031082263
215	0x3f0a42fe	0.5400847
216	0x3e9f0f86	0.3106653
217	0xbe1ed8fc	-0.1551246
218	0xbad43090	-0.0016188789
219	0xbd055af6	-0.03255745
220	0x3e8d6f23	0.27623853
221	0xbdc15dd4	-0.094417244
222	0x3e38a598	0.18031919
223	0x3e5baffa	0.21453848
224	0xbecc0f5f	-0.39855477
225	0xbdb4cf75	-0.08828632
226	0xbdd8d676	-0.1058778
227	0xbd8d0985	-0.06886581
228	0xbe61cf56	-0.22051749
229	0xbe1b6446	-0.1517497
230	0x3e4380bd	0.19092079
231	0x3e5cd570	0.21565795
232	0xbd013ae8	-0.031550318
233	0xbe6ce97b	-0.2313594
234	0xbeb08941	-0.34479716
235	0xbdacf570	-0.08445251
236	0x3e35bc19	0.17747535
237	0xbc29e570	-0.010369644
238	0x3d9113ed	0.07083879
239	0xbe7dbfd3	-0.24780206
240	0x3e5c9189	0.21539892
241	0x3d5b5c91	0.053555075
242	0x3cb7242a	0.022356112
243	0x3e9377a1	0.28802207
244	0xbe3ff856	-0.18747076
245	0xbdbb4508	-0.09144026
246	0x3e8d2227	0.2756512
247	0x3ec47256	0.3836848
248	0xbc269f20	-0.010169774
249	0xbe1d659d	-0.15370794
250	0xbda1aafe	-0.07893942
251	0x3dbf2026	0.09332304
252	0xbdcc4793	-0.09974589
253	0x3dd7a7a6	0.10530023
254	0xbd067249	-0.032823835
255	0x3daec4fa	0.08533664

fc1.bias f4 [120]
0	0x3ec3aefa	0.38219434
1	0x3d1c8c3d	0.03821968
2	0xbd1b49ab	-0.037912052
3	0xbbee6850	-0.0072756186
4	0x3e9a3825	0.3012096
5	0x3d79ec5c	0.061016425
6	0x3e9490ba	0.29016668
7	0x3b6e38ea	0.0036349841
8	0xbd59f518	-0.053212255
9	0xbe302798	-0.17202604
10	0x3d4a6bc0	0.049419165
11	0x3d64de55	0.055876095
12	0xbe0665b1	-0.1312473
13	0xbb876c23	-0.004132764
14	0xbe95ad3b	-0.29233727
15	0xbc97a451	-0.01851097
16	0x3b87e3b3	0.004147017
17	0x3ea08c50	0.3135705
18	0x3eac2226	0.33619803
19	0x3e9db8b1	0.3080497
20	0x3d20fb7b	0.03930233
21	0xbd0ff196	-0.035142504
22	0x3f0b10f4	0.54322743
23	0x3cc5b74d	0.024135256
24	0xbe94b4e7	-0.29044268
25	0xbdcd77b5	-0.10032598
26	0xbe90ff80	-0.2831993
27	0x3e8eea9c	0.27913368
28	0x3c106a42	0.008814396
29	0xbc425444	-0.011860911
30	0x3f238cff	0.6388702
31	0xbc63e6ca	-0.013910005
32	0x3ef25d19	0.47336653
33	0xbd90e954	-0.07075754
34	0x3dcc033a	0.09961553
35	0x3f2904a5	0.6602271
36	0x3e47d2a0	0.19513941
37	0x3e1c58d4	0.1526826
38	0x3d7c1440	0.06154275
39	0x3cf594b6	0.029978137
40	0xbeb9d053	-0.3629175
41	0x3e428393	0.18995504
42	0xbeb3dd2f	-0.35129687
43	0xbe5815e9	-0.21102108
44	0xbf03aa87	-0.5143208
45	0xbd58112a	-0.052750744
46	0xbedc7126	-0.43055075
47	0xbc43cc5d	-0.0119505795
48	0xbcf67b20	-0.030088007
49	0x3e069751	0.1314366
50	0xbe6b4250	-0.22974515
51	0xbd0bf657	-0.034170475
52	0xbe430e92	-0.19048527
53	0x3e30c5e9	0.17262997
54	0xbd95d155	-0.073153175
55	0xbda38937	-0.07985156
56	0x3db1dcca	0.0868469
57	0xbe0ea896	-0.13931498
58	0x3eadb965	0.33930507
59	0xbe1a4da1	-0.15068676
60	0xbd84b31a	-0.064794734
61	0x3dd73d6d	0.10509763
62	0xbd7b622f	-0.061372932
63	0x3e19ec14	0.15031463
64	0x3c297d72	0.01034485
65	0xbe89a2b8	-0.26881957
66	0x3d52c8bc	0.051460966
67	0x3cc2bc1f	0.023771344
68	0xbc31db7f	-0.010855555
69	0x3ea04672	0.31303746
70	0xbe941c9e	-0.28928083
71	0xbe76e91c	-0.24112362
72	0x3e0556a5	0.13021334
73	0x3e8b39b1	0.27192453
74	0x3da478ef	0.08030879
75	0x3d93cf55	0.0721728
76	0x3d93ecab	0.07222875
77	0x3da907bb	0.082534276
78	0xbdbae3e3	-0.09125497
79	0x3e6ad2e0	0.22932005
80	0xbd9704a0	-0.07373929
81	0x3cdb348e	0.026758458
82	0xbe39da2c	-0.18149632
83	0x3ebb18d6	0.36542386
84	0xbe728f6b	-0.23687522
85	0x3f221754	0.63316846
86	0x3dc7f835	0.097641386
87	0x3aa6e1fb	0.0012732142
88	0xbd6929fb	-0.0569248
89	0xbdc6f503	-0.09714701
90	0xbe62ac29	-0.22135986
91	0x3e0dfdfe	0.13866422
92	0xbd9673d4	-0.07346311
93	0xbe624347	-0.22095977
94	0x3d07f36d	0.033191133
95	0xbeeafa3d	-0.45894042
96	0x3e99e2ea	0.30055934
97	0x3ecb0781	0.39654163
98	0xbe80c22f	-0.2514815
99	0x3ea8f52a	0.32999545
100	0x3ec57ef9	0.38573435
101	0xbe26c168	-0.16284716
102	0xbe90c40e	-0.28274578
103	0xbdf74a1b	-0.12074681
104	0xbe5ff78e	-0.21871778
105	0x3e8758a7	0.26434824
106	0xbe5ddb08	-0.21665585
107	0x3d0f9038	0.035049647
108	0x3e39dbab	0.18150203
109	0xbec24e9f	-0.37950608
110	0x3dadb75b	0.08482238
111	0x3e95591d	0.2916955
112	0xbdb36769	-0.08759958
113	0x3e642808	0.22280896
114	0xbd6d8c81	-0.057995323
115	0x3cc6879a	0.024234582
116	0x3e72ef62	0.2372413
117	0xbe662315	-0.2247432
118	0xbc1f8212	-0.009735601
119	0x3eae53fa	0.34048444

fc2.weight f4 [65, 120]
0	0xbcf1436c	-0.029451095
1	0xbe9126c9	-0.28349903
2	0xbe3abb79	-0.18235578
3	0xbe9c18ed	-0.30487767
4	0x3db428b7	0.08796828
5	0xbe15241e	-0.14564559
6	0x3d82c5ce	0.063853845
7	0xbec161a6	-0.37769812
8	0xbe0a682a	-0.13516298
9	0x3e32d04b	0.1746227
10	0x3e316e1a	0.17327157
11	0x3e018810	0.1264956
12	0xbd7b54d0	-0.06136018
13	0xbdcc884d	-0.09986935
14	0xbe52ae26	-0.20574245
15	0x3d034900	0.03205204
16	0xbe171767	-0.14755021
17	0xbda280cb	-0.079347216
18	0xbd15dd00	-0.036587715
19	0x3bef9ad4	0.007312158
20	0xbd6c7d0a	-0.057736434
21	0xbe2f1f92	-0.17101887
22	0xbda0cf20	-0.07852006
23	0xbeb4b050	-0.35290766
24	0x3e57c038	0.2106942
25	0x3d8b8609	0.068126746
26	0xbded53eb	-0.11588272
27	0xbcb4c07e	-0.022064444
28	0xbde74686	-0.11292748
29	0xbe33e0ed	-0.17566271
30	0x3e1d89ca	0.15384594
31	0x3dc0db64	0.094168454
32	0x3e16ad21	0.14714481
33	0x3becc614	0.007225761
34	0xbe0ba937	-0.13638769
35	0x3deecfd8	0.11660737
36	0x3e41ab69	0.18913044
37	0x3e7def30	0.24798274
38	0xbd13b207	-0.036058452
39	0x3c820184	0.015869863
40	0xbd8cefa8	-0.06881648
41	0x3dd00214	0.10156646
42	0xbd184b83	-0.03718139
43	0xbe1df0e5	-0.15423925
44	0xbd9fc569	-0.07801325
45	0xbe7640e0	-0.24048185
46	0xbe15f326	-0.14643535
47	0x3c962733	0.018329239
48	0xbe439652	-0.19100311
49	0xbe2abea0	-0.1667428
50	0xbd123a94	-0.035700396
51	0xbd5e837a	-0.054324605
52	0xbea206cd	-0.31645814
53	0x3cd6aafd	0.02620458
54	0xbe8820f7	-0.2658765
55	0xbe2ad3e6	-0.16682395
56	0x3d962008	0.07330328
57	0xbd9e8a2c	-0.07741198
58	0x3df3fee9	0.11913855
59	0xbd80053a	-0.06250997
60	0x3b802d35	0.003911639
61	0xbcfd1633	-0.030894374
62	0x3e375052	0.17901734
63	0xbe1e844d	-0.15480156
64	0xbe0ae878	-0.13565242
65	0xbe07a089	-0.13244833
66	0x3dc44153	0.09582772
67	0xbe8132ca	-0.2523406
68	0xbddca2b0	-0.10773218
69	0x3e304e5b	0.1721739
70	0xbd57f60f	-0.052724894
71	0xbe27fad0	-0.16404271
72	0x3e238386	0.15968141
73	0x3d8db275	0.069188036
74	0x3cddc69b	0.027072242
75	0x3de65cd2	0.11248173
76	0x3cf34cd3	0.029699719
77	0xbc8e90ed	-0.01740309
78	0xbd806c4e	-0.062706575
79	0xbeedadfb	-0.464218
80	0xbe013992	-0.12619618
81	0xbe946bf3	-0.2898861
82	0x3d58ee83	0.052961838
83	0xbdc67446	-0.09690146
84	0xbcf16f7c	-0.029472105
85	0xbe23fbcb	-0.1601402
86	0x3d0e2b9f	0.03470957
87	0xbddac67c	-0.10682389
88	0xbe1f40b7	-0.1555203
89	0x3d5961df	0.053071853
90	0xbd8489d2	-0.064716
91	0x3dac65f5	0.08417884
92	0xbe4219cc	-0.18955153
93	0xbdc1a814	-0.094558865
94	0x3d0a036a	0.033694662
95	0xbdcf3ad3	-0.10118642
96	0xbe715579	-0.23567761
97	0xbe19776b	-0.1498696
98	0xbe978537	-0.29593822
99	0xbe7b7105	-0.24554832
100	0x3e153233	0.1456993
101	0x3d5b784e	0.05358153
102	0xbe9d3caf	-0.3071036
103	0xbd986f43	-0.074430965
104	0xbdb6b2fe	-0.08920859
105	0x3c16cb25	0.009203707
106	0xbe2d60ce	-0.1693146
107	0x3d9fc642	0.078014866
108	0xbc94f7a8	-0.018184498
109	0x3d908267	0.07056122
110	0x3d2856db	0.041098457
111	0x3d7e93ae	0.062152557
112	0x3e297269	0.1654755
113	0xbe19816a	-0.14990774
114	0xbe4593f0	-0.19294715
115	0xbe617835	-0.22018512
116	0xbd3acf64	-0.04560794
117	0xbe7d9191	-0.2476256
118	0xbc7fd494	-0.015614647
119	0xbb9e1778	-0.004824575
120	0xbe1703c3	-0.14747529
121	0x3e478255	0.19483311
122	0xbb95b65e	-0.004568859
123	0xbdb9ec78	-0.09078306
124	0x3b0aa0a7	0.0021152885
125	0x3e0966bb	0.13418095
126	0xbc8ffb3d	-0.017575854
127	0x3e3fee6b	0.18743293
128	0xbe51ff6e	-0.20507595
129	0xbda55639	-0.08073086
130	0x3c07d78e	0.008291138
131	0x3a7330a5	0.0009276963
132	0xbd303d24	-0.04302706
133	0x3e01d5b7	0.12679182
134	0x3d9a8eb4	0.0754675
135	0xbe8beb51	-0.2732797
136	0xbe4cda67	-0.20005189
137	0xbea7fd70	-0.32810545
138	0x3d3c0ce8	0.045910746
139	0xbd8e8cca	-0.06960447
140	0xbcc6d570	-0.024271697
141	0xbe81e369	-0.25368813
142	0xbe4016f0	-0.1875875
143	0xbddd4aba	-0.108052686
144	0xbe07af8f	-0.13250564
145	0x3d19e956	0.037576042
146	0xbc04f159	-0.008114182
147	0xbe21410e	-0.15747473
148	0x3ea5aab1	0.3235679
149	0xbdcd5987	-0.100268416
150	0xbea2472e	-0.3169493
151	0xbe3eaaec	-0.18619889
152	0x3dc2e9dc	0.095172614
153	0xbe6aaf53	-0.22918443
154	0x3e2df21e	0.16986892
155	0xbe70d2e1	-0.23517944
156	0x3e1faa45	0.15592296
157	0x3df4022c	0.11914477
158	0x3dbc25ea	0.09186919
159	0xbd388f55	-0.045058567
160	0xbe3d623d	-0.18494506
161	0xbe2077d4	-0.15670711
162	0x3c8af675	0.016963223
163	0x3d980266	0.074223325
164	0xbe856ab3	-0.26057968
165	0x3deb1a03	0.11479571
166	0x3e93679e	0.2878999
167	0x3c9028a7	0.01759751
168	0x3de27f63	0.11059453
169	0xbe0270a2	-0.12738279
170	0x3cfbe7e0	0.030750215
171	0xbe3d3106	-0.18475732
172	0xbc018a93	-0.007906574
173	0xbea967e9	-0.3308709
174	0xbe0433d4	-0.12910396
175	0x3e60ca3b	0.21952145
176	0xbe4e8121	-0.20166446
177	0xbde1eece	-0.110318765
178	0xbebf5c49	-0.37375095
179	0xbd949dd7	-0.07256668
180	0xbe1e65dc	-0.15468544
181	0x3e298410	0.16554284
182	0xbdea6ffb	-0.1144714
183	0xbddbe547	-0.107370906
184	0x3e0a8a19	0.13529243
185	0xbe22a314	-0.15882522
186	0x3de22d97	0.11043852
187	0xbd89fd4a	-0.06737764
188	0xbe449e36	-0.19200978
189	0xbe8bfff1	-0.27343705
190	0x3e7139ea	0.23557249
191	0xbdb0647a	-0.086129144
192	0x3db1b466	0.086769864
193	0x3e5855ec	0.21126527
194	0x3db5beab	0.08874258
195	0xbe77777e	-0.24166676
196	0x3d8fc308	0.07019621
197	0xbdeb5406	-0.114906356
198	0x3dbf538b	0.093421064
199	0xbe8a69c8	-0.2703383
200	0xbd79b7b7	-0.06096622
201	0xbe575e03	-0.21031956
202	0x3d72db2a	0.059291042
203	0x3e46292e	0.19351646
204	0xbdfdcd98	-0.123927295
205	0xbdc5ecf3	-0.09664335
206	0xbe5e7ba0	-0.21726847
207	0xbe718f06	-0.23589715
208	0xbd7c0c59	-0.061535213
209	0xbe02d1b1	-0.12775303
210	0xbe7406de	-0.23830745
211	0xbdd09a8f	-0.1018573
212	0xbdf41702	-0.11918451
213	0xbe3881f6	-0.18018326
214	0x3db444f6	0.08802216
215	0x3d5a7de7	0.053342726
216	0xbe437250	-0.19086576
217	0xbd8354ae	-0.06412636
218	0xbe0d1c9f	-0.1378045
219	0xbdf98115	-0.121828236
220	0x3e6971e4	0.22797352
221	0xbe740420	-0.23829699
222	0xbae32e25	-0.0017332478
223	0xbe0ef7d5	-0.13961728
224	0x3dc08cd4	0.09401861
225	0x3d076ada	0.033060886
226	0x3d5d378a	0.054008044
227	0x3e117149	0.14203371
228	0xbe291262	-0.16510919
229	0xbdddb7be	-0.10826062
230	0x3d06b852	0.032890625
231	0xbe0d6ccd	-0.13811035
232	0xbd5bad64	-0.053632155
233	0xbe0d9c1a	-0.1382908
234	0xbd5d4412	-0.054019995
235	0xbe3b5480	-0.18293953
236	0xbdaad416	-0.083412334
237	0x3e99e1ad	0.3005499
238	0x3caf5d0d	0.021406675
239	0xbe471072	-0.19439867
240	0x3dc7e652	0.09760727
241	0xbde2223a	-0.110416844
242	0x3e8dd30c	0.27700078
243	0xbe11bcf4	-0.14232236
244	0x3d6453ff	0.055744167
245	0xbe25b2dc	-0.1618151
246	0xbeb2d0cb	-0.3492492
247	0x3e1000a8	0.1406275
248	0x3e35966f	0.17733167
249	0x3debd54a	0.11515291
250	0xbc858e81	-0.016303303
251	0xbde77978	-0.11302465
252	0xbe7d08cd	-0.24710388
253	0x3e85e3b1	0.26150277
254	0x3d0ba492	0.034092493
255	0x3d8816b7	0.066449575

fc2.bias f4 [65]
0	0x3e818a4e	0.2530083
1	0xbe1f2f76	-0.15545449
2	0x3ea22796	0.31670827
3	0x3eb39304	0.35073102
4	0x3c81ec1b	0.015859654
5	0x3f178c77	0.5919871
6	0xbe8cbf66	-0.27489775
7	0x3e025ac9	0.12729944
8	0x3f0a257a	0.53963435
9	0x3d704bdf	0.058666106
10	0x3d87d076	0.06631558
11	0x3f274dc6	0.6535305
12	0x3f5eada0	0.8698368
13	0xbd9e1b28	-0.077200234
14	0x3e1d29b8	0.15347946
15	0xbe6b3caa	-0.2297236
16	0x3dd1e5ea	0.10248931
17	0xbe5fe4b2	-0.21864584
18	0x3ec3e614	0.38261473
19	0x3e1d4d47	0.1536151
20	0xbcbd96fe	-0.023143288
21	0xbda95907	-0.08268934
22	0x3e1deae8	0.15421641
23	0x3f2cd203	0.6750795
24	0xbea4057e	-0.3203544
25	0xbe668b3e	-0.22514054
26	0x3ed5f7d0	0.41790628
27	0x3e12c6dc	0.14333671
28	0xbe42b66b	-0.190149
29	0x3f9e0b7c	1.2347255
30	0x3de5f3c3	0.112281345
31	0x3f31bd33	0.6942932
32	0x3e1f8cf6	0.15581116
33	0x3ed0b646	0.40764064
34	0x3ea0574f	0.3131661
35	0x3e243dbb	0.16039173
36	0x3f81207b	1.0088037
37	0x3e90b654	0.28264105
38	0x3e1d509a	0.15362778
39	0x3eeba668	0.46025395
40	0x3f62b13a	0.88551676
41	0x3a1b0147	0.0005912971
42	0xbe8cc792	-0.2749601
43	0x3fc234cf	1.5172366
44	0x3d846c57	0.06465977
45	0x3e976e16	0.29576176
46	0x3f507d24	0.8144095
47	0x3f198542	0.5996896
48	0x3e6ac313	0.22925977
49	0xbe117577	-0.14204966
50	0xbd57b6de	-0.05266463
51	0x3ece68d5	0.40314355
52	0x3f0eb6a6	0.5574745
53	0xbe15bce3	-0.14622836
54	0x3ebde365	0.3708755
55	0xbea3ec6d	-0.32016316
56	0xbebd7b99	-0.3700836
57	0x3f21439c	0.6299379
58	0xbc7b6744	-0.015344445
59	0x3f2e4cb7	0.6808581
60	0x3f12be9f	0.57322115
61	0x3f8f8879	1.1213523
62	0xbdd379c9	-0.10325963
63	0x3f467a4e	0.7753037
64	0xbd9e9dce	-0.077449426

fc3.weight f4 [10, 65]
0	0xbca6c0c8	-0.020355597
1	0xbd84d1b6	-0.06485312
2	0xbe192192	-0.14954212
3	0x3e095a7c	0.13413423
4	0x3e1b75ef	0.15181707
5	0xbd05d9de	-0.032678477
6	0xbb3a96ed	-0.0028471306
7	0x3e18951e	0.14900634
8	0xbd387fd6	-0.04504379
9	0x3e5071fe	0.20355985
10	0x3de31f73	0.11089983
11	0xbe837ccc	-0.2568115
12	0xbdae85df	-0.08521628
13	0x3dc54a9e	0.09633373
14	0x3e8a4089	0.2700236
15	0x3d8fb9bc	0.07017848
16	0x3e20ed21	0.15715457
17	0x3e846665	0.2585937
18	0x3e3813f7	0.17976366
19	0x3e7d9119	0.24762382
20	0x3e7d0006	0.2470704
21	0xbe0d77be	-0.1381521
22	0x3e9b33f3	0.30313072
23	0x3d52ff8b	0.051513236
24	0x3e3cd197	0.18439327
25	0xbc810458	-0.015749142
26	0x3e459b6e	0.19297573
27	0x3d599226	0.053117894
28	0xbe82a7d4	-0.25518668
29	0xbd4f7a94	-0.05065401
30	0xbdea1323	-0.11429431
31	0xbe904f55	-0.28185526
32	0xbe2fbe38	-0.17162406
33	0x3e38094d	0.17972298
34	0xbd06c9bf	-0.032907244
35	0xbbabad8d	-0.0052391947
36	0xbe43b230	-0.19110942
37	0x3e173091	0.1476462
38	0x3e3fe337	0.1873902
39	0x3df2aeef	0.11849772
40	0xbe22b6eb	-0.1589009
41	0x3dca2964	0.09871176
42	0x3d33e5ed	0.043920446
43	0xbea1766c	-0.3153566
44	0xbde924fb	-0.113840066
45	0xbd8de7dd	-0.0692899
46	0x3e224ab1	0.15848805
47	0xbe9de15f	-0.30836007
48	0x3e288abb	0.16459171
49	0xbe205d3d	-0.15660568
50	0x3dfa7d00	0.12230873
51	0xbe303152	-0.17206314
52	0x3cb3251c	0.021868281
53	0xbd9513f2	-0.07279195
54	0x3e67b49e	0.22627494
55	0xbcbcf2cb	-0.023064991
56	0x3e9f1cb0	0.31076574
57	0xbd0cdc53	-0.034389805
58	0xbe03fb0f	-0.1288874
59	0xbcb1bcc2	-0.021696452
60	0xbd62130a	-0.05519394
61	0x3d8e320a	0.06943138
62	0x3e71ffc3	0.23632722
63	0x3e0bb8c0	0.13644695
64	0x3e1ed345	0.1551028
65	0xbd310d03	-0.0432253
66	0x3dee3d37	0.116327696
67	0x3c0b2a9a	0.008494044
68	0xbea0cf42	-0.31408125
69	0x3dd2dfea	0.102966145
70	0xbcbf470d	-0.02334931
71	0x3cbd53b2	0.023111198
72	0x3e57520e	0.21027395
73	0xbd54e0fb	-0.05197237
74	0xbd01bbfa	-0.03167341
75	0x3e8615fd	0.2618865
76	0xbd694a11	-0.0569554
77	0xbc36db31	-0.011160658
78	0x3e47a110	0.19495034
79	0x3dd07afa	0.10179706
80	0x3d1a2121	0.03762925
81	0x3e7cf547	0.24702941
82	0xbe2263fb	-0.15858452
83	0x3e41f7d0	0.18942189
84	0x3e83edf3	0.25767478
85	0x3e10ed3a	0.14152995
86	0x3e029625	0.12752588
87	0xbd984e8f	-0.07436859
88	0xbd56af99	-0.052413557
89	0x3e0ea286	0.13929185
90	0x3dbd7eaa	0.09252675
91	0xbe9150cd	-0.2838196
92	0x3c80d97f	0.01572871
93	0xbe118c58	-0.14213693
94	0xbdaa2b62	-0.08309056
95	0x3e41924d	0.18903466
96	0xbdbc75db	-0.09202167
97	0x3e843b5d	0.2582654
98	0xbe83033d	-0.25588408
99	0xbd07f1c3	-0.033189546
100	0x3c9bf442	0.01903737
101	0xbe5f0dd9	-0.21782626
102	0xbe58095f	-0.21097325
103	0xbed12be7	-0.40853807
104	0xbea600a0	-0.32422352
105	0x3d6eee22	0.05833257
106	0xbc2c3241	-0.010510028
107	0x3cc027e6	0.023456525
108	0xbe39e850	-0.18155026
109	0x3e7983f7	0.24366747
110	0xbe3889df	-0.18021344
111	0xbd39223a	-0.045198657
112	0xbdfd639e	-0.12372516
113	0x3e917a54	0.2841364
114	0x3e833932	0.25629574
115	0xbde1a9ad	-0.11018691
116	0x3d77b005	0.0604706
117	0x3ded1b3b	0.115774594
118	0x3de3c688	0.11121851
119	0x3e615f66	0.22009048
120	0xbd2d341b	-0.04228602
121	0xbd6f18fd	-0.05837344
122	0xbe914778	-0.2837484
123	0x3e6f9c0c	0.23399371
124	0x3c6e8935	0.01455908
125	0xbdd80f7c	-0.105498284
126	0xbe66ae40	-0.22527409
127	0xbdfaaf3c	-0.122404546
128	0x3bfaeb82	0.0076574693
129	0x3dd0b177	0.10190099
130	0x3df1a44e	0.11798917
131	0x3e49ce1b	0.19707529
132	0xbe7ff960	-0.24997473
133	0x3e521692	0.20516422
134	0xbdf900b7	-0.121583395
135	0xbd84c6c1	-0.06483222
136	0x3d7dc8a2	0.061958916
137	0xbe6d41cf	-0.23169635
138	0x3e4a3ffd	0.19750972
139	0xbd9de160	-0.077090025
140	0x3d9f87b0	0.07789552
141	0xbbe32028	-0.0069313236
142	0x3c8e4641	0.017367484
143	0x3dc33ca2	0.09533049
144	0x3e459097	0.19293438
145	0xbda6bcb3	-0.0814146
146	0xbe18f4d4	-0.14937145
147	0x3e4968b1	0.19668843
148	0xbdf35341	-0.11881114
149	0xbe1e30d0	-0.15448308
150	0xbdc80a24	-0.09767559
151	0xbdb37a02	-0.087635055
152	0x3cba96b6	0.022776943
153	0x3e51d9a2	0.20493177
154	0x3dbaee1e	0.091274485
155	0x3dd4aa15	0.10384003
156	0x3d8c5334	0.06851807
157	0x3e745758	0.23861444
158	0x3d8959de	0.06706594
159	0x3e42e18a	0.19031349
160	0x3d213a4a	0.03936223
161	0x3e4b9dc1	0.19884397
162	0xbe82e4f0	-0.2556529
163	0xbc88072e	-0.016604986
164	0xbc753548	-0.0149663165
165	0xbe61b5cb	-0.22042005
166	0x3e80c3e7	0.25149462
167	0x3e062243	0.13099007
168	0x3ea3c1b6	0.31983727
169	0x3de093d7	0.10965698
170	0x3dc69aaf	0.09697472
171	0x3d5651da	0.052324153
172	0x3e6d300c	0.2316286
173	0x3e6a8cb8	0.22905242
174	0x3c8856be	0.016642924
175	0x3d85f03f	0.06539964
176	0x3e3feb17	0.18742023
177	0x3dcfd467	0.101479344
178	0xbe3d942c	-0.18513554
179	0x3e14b1f0	0.14521003
180	0xbe92e8d2	-0.28693253
181	0xb95b887f	-0.00020936316
182	0xbe1c6815	-0.15274079
183	0x3e1f392f	0.15549158
184	0x3e245e0f	0.16051506
185	0xbdebf618	-0.11521548
186	0x3db6c714	0.0892469
187	0xbd886509	-0.06659896
188	0x3da45eae	0.08025871
189	0x3b8db65f	0.004324719
190	0xbd2d3fe6	-0.042297266
191	0xbd958103	-0.07299998
192	0x3e64f057	0.22357307
193	0xbd543bb7	-0.05181476
194	0x3dc5ad09	0.096521445
195	0x3e2321cc	0.15930861
196	0x3d52effd	0.051498402
197	0x3dd3f992	0.10350336
198	0x3dfd7236	0.123753
199	0x3cc332f3	0.023828005
200	0x3e978011	0.29589894
201	0x3e98ae1d	0.29820338
202	0x3e07a768	0.13247454
203	0xbe139ce0	-0.14415312
204	0xbe1ccdc0	-0.15312862
205	0xbd745a4f	-0.059656437
206	0x3e1a265c	0.15053695
207	0x3e25d897	0.16195904
208	0xbd9d0657	-0.07667225
209	0x3e139deb	0.1441571
210	0xbd65fed3	-0.056151222
211	0xbe13b78f	-0.14425491
212	0x3e2b58d8	0.1673311
213	0xbd5c24fe	-0.053746216
214	0xbe910e86	-0.28331393
215	0xbd5bd781	-0.053672317
216	0x3cda0eb3	0.026618337
217	0x3e02ebec	0.1278531
218	0xbe353f68	-0.17699969
219	0xbd011579	-0.03151462
220	0xbd5fa073	-0.054596376
221	0xbda16659	-0.078808494
222	0x3dda075a	0.106459334
223	0xbc06ca59	-0.008226954
224	0x3e70b470	0.23506331
225	0xbddb90d6	-0.10720985
226	0x3dfe8fcb	0.1242977
227	0x3cda53cd	0.026651287
228	0x3cc5b3ad	0.024133528
229	0x3d5343c8	0.051578313
230	0x3dd0fbcd	0.10204277
231	0x3dccd5af	0.100016944
232	0x3c8d5de6	0.017256688
233	0x3d83685e	0.06416391
234	0x3d85e6fb	0.06538197
235	0x3e264cd8	0.16240251
236	0xbe9ef7bb	-0.31048378
237	0xbdb5fcb5	-0.08886091
238	0x3e4386d2	0.19094399
239	0x3d8e1744	0.06938031
240	0x3e1209d7	0.14261566
241	0xbdb3548b	-0.0875636
242	0x3e637257	0.22211586
243	0xbe24848a	-0.16066185
244	0xbdfa8f0b	-0.122343145
245	0x3e278485	0.16359146
246	0xbdb5a4a5	-0.08869294
247	0x3db3f5c4	0.087871104
248	0xbdf6c6d1	-0.1204964
249	0xbe49ff0f	-0.19726203
250	0xbc950304	-0.018189915
251	0xbdb30436	-0.087410375
252	0xbcd1fc5d	-0.025633032
253	0x3d1554da	0.036457874
254	0x3df6f19e	0.120578036
255	0xbe0c5065	-0.13702543

fc3.bias f4 [10]
0	0xbf0e3350	-0.55547047
1	0xbf94485d	-1.1584584
2	0xbed5defc	-0.41771686
3	0x3f599c81	0.8500443
4	0x3f8e00a9	1.1093951
5	0x3e9037c2	0.2816754
6	0x3f16f3f9	0.5896602
7	0xbeb4abec	-0.35287416
8	0x3e8b71c4	0.27235234
9	0xbebafedf	-0.36522576
